…
   "execution_count": 39,
   "metadata": {
    "colab": {},
    "colab_type": "code",
    "id": "1xJZ5glPPCRz"
   },
   "outputs": [
    {
     "name": "stdout",
     "output_type": "stream",
     "text": [
      "Model: \"inception_v3\"\n",
      "__________________________________________________________________________________________________\n",
      "Layer (type)                    Output Shape         Param #     Connected to                     \n",
      "==================================================================================================\n",
      "input_6 (InputLayer)            [(None, 150, 150, 3) 0                                            \n",
      "__________________________________________________________________________________________________\n",
      "conv2d_470 (Conv2D)             (None, 74, 74, 32)   864         input_6[0][0]                    \n",
      "__________________________________________________________________________________________________\n",
      "batch_normalization_470 (BatchN (None, 74, 74, 32)   96          conv2d_470[0][0]                 \n",
      "__________________________________________________________________________________________________\n",
      "activation_470 (Activation)     (None, 74, 74, 32)   0           batch_normalization_470[0][0]    \n",
      "__________________________________________________________________________________________________\n",
      "conv2d_471 (Conv2D)             (None, 72, 72, 32)   9216        activation_470[0][0]             \n",
      "__________________________________________________________________________________________________\n",
      "batch_normalization_471 (BatchN (None, 72, 72, 32)   96          conv2d_471[0][0]                 \n",
      "__________________________________________________________________________________________________\n",
      "activation_471 (Activation)     (None, 72, 72, 32)   0           batch_normalization_471[0][0]    \n",
      "__________________________________________________________________________________________________\n",
      "conv2d_472 (Conv2D)             (None, 72, 72, 64)   18432       activation_471[0][0]             \n",
      "__________________________________________________________________________________________________\n",
      "batch_normalization_472 (BatchN (None, 72, 72, 64)   192         conv2d_472[0][0]                 \n",
      "__________________________________________________________________________________________________\n",
      "activation_472 (Activation)     (None, 72, 72, 64)   0           batch_normalization_472[0][0]    \n",
      "__________________________________________________________________________________________________\n",
      "max_pooling2d_20 (MaxPooling2D) (None, 35, 35, 64)   0           activation_472[0][0]             \n",
      "__________________________________________________________________________________________________\n",
      "conv2d_473 (Conv2D)             (None, 35, 35, 80)   5120        max_pooling2d_20[0][0]           \n",
      "__________________________________________________________________________________________________\n",
      "batch_normalization_473 (BatchN (None, 35, 35, 80)   240         conv2d_473[0][0]                 \n",
      "__________________________________________________________________________________________________\n",
      "activation_473 (Activation)     (None, 35, 35, 80)   0           batch_normalization_473[0][0]    \n",
      "__________________________________________________________________________________________________\n",
      "conv2d_474 (Conv2D)             (None, 33, 33, 192)  138240      activation_473[0][0]             \n",
      "__________________________________________________________________________________________________\n",
      "batch_normalization_474 (BatchN (None, 33, 33, 192)  576         conv2d_474[0][0]                 \n",
      "__________________________________________________________________________________________________\n",
      "activation_474 (Activation)     (None, 33, 33, 192)  0           batch_normalization_474[0][0]    \n",
      "__________________________________________________________________________________________________\n",
      "max_pooling2d_21 (MaxPooling2D) (None, 16, 16, 192)  0           activation_474[0][0]             \n",
      "__________________________________________________________________________________________________\n",
      "conv2d_478 (Conv2D)             (None, 16, 16, 64)   12288       max_pooling2d_21[0][0]           \n",
      "__________________________________________________________________________________________________\n",
      "batch_normalization_478 (BatchN (None, 16, 16, 64)   192         conv2d_478[0][0]                 \n",
      "__________________________________________________________________________________________________\n",
      "activation_478 (Activation)     (None, 16, 16, 64)   0           batch_normalization_478[0][0]    \n",
      "__________________________________________________________________________________________________\n",
      "conv2d_476 (Conv2D)             (None, 16, 16, 48)   9216        max_pooling2d_21[0][0]           \n",
      "__________________________________________________________________________________________________\n",
      "conv2d_479 (Conv2D)             (None, 16, 16, 96)   55296       activation_478[0][0]             \n",
      "__________________________________________________________________________________________________\n",
      "batch_normalization_476 (BatchN (None, 16, 16, 48)   144         conv2d_476[0][0]                 \n",
      "__________________________________________________________________________________________________\n",
      "batch_normalization_479 (BatchN (None, 16, 16, 96)   288         conv2d_479[0][0]                 \n",
      "__________________________________________________________________________________________________\n",
      "activation_476 (Activation)     (None, 16, 16, 48)   0           batch_normalization_476[0][0]    \n",
      "__________________________________________________________________________________________________\n",
      "activation_479 (Activation)     (None, 16, 16, 96)   0           batch_normalization_479[0][0]    \n",
      "__________________________________________________________________________________________________\n",
      "average_pooling2d_45 (AveragePo (None, 16, 16, 192)  0           max_pooling2d_21[0][0]           \n",
      "__________________________________________________________________________________________________\n",
      "conv2d_475 (Conv2D)             (None, 16, 16, 64)   12288       max_pooling2d_21[0][0]           \n",
      "__________________________________________________________________________________________________\n",
      "conv2d_477 (Conv2D)             (None, 16, 16, 64)   76800       activation_476[0][0]             \n",
      "__________________________________________________________________________________________________\n",
      "conv2d_480 (Conv2D)             (None, 16, 16, 96)   82944       activation_479[0][0]             \n",
      "__________________________________________________________________________________________________\n",
      "conv2d_481 (Conv2D)             (None, 16, 16, 32)   6144        average_pooling2d_45[0][0]       \n",
      "__________________________________________________________________________________________________\n",
      "batch_normalization_475 (BatchN (None, 16, 16, 64)   192         conv2d_475[0][0]                 \n",
      "__________________________________________________________________________________________________\n",
      "batch_normalization_477 (BatchN (None, 16, 16, 64)   192         conv2d_477[0][0]                 \n",
      "__________________________________________________________________________________________________\n",
      "batch_normalization_480 (BatchN (None, 16, 16, 96)   288         conv2d_480[0][0]                 \n",
      "__________________________________________________________________________________________________\n",
      "batch_normalization_481 (BatchN (None, 16, 16, 32)   96          conv2d_481[0][0]                 \n",
      "__________________________________________________________________________________________________\n",
      "activation_475 (Activation)     (None, 16, 16, 64)   0           batch_normalization_475[0][0]    \n",
      "__________________________________________________________________________________________________\n",
      "activation_477 (Activation)     (None, 16, 16, 64)   0           batch_normalization_477[0][0]    \n",
      "__________________________________________________________________________________________________\n",
      "activation_480 (Activation)     (None, 16, 16, 96)   0           batch_normalization_480[0][0]    \n",
      "__________________________________________________________________________________________________\n",
      "activation_481 (Activation)     (None, 16, 16, 32)   0           batch_normalization_481[0][0]    \n",
      "__________________________________________________________________________________________________\n",
      "mixed0 (Concatenate)            (None, 16, 16, 256)  0           activation_475[0][0]             \n",
      "                                                                 activation_477[0][0]             \n",
      "                                                                 activation_480[0][0]             \n",
      "                                                                 activation_481[0][0]             \n",
      "__________________________________________________________________________________________________\n",
      "conv2d_485 (Conv2D)             (None, 16, 16, 64)   16384       mixed0[0][0]                     \n",
      "__________________________________________________________________________________________________\n",
      "batch_normalization_485 (BatchN (None, 16, 16, 64)   192         conv2d_485[0][0]                 \n",
      "__________________________________________________________________________________________________\n",
      "activation_485 (Activation)     (None, 16, 16, 64)   0           batch_normalization_485[0][0]    \n",
      "__________________________________________________________________________________________________\n",
      "conv2d_483 (Conv2D)             (None, 16, 16, 48)   12288       mixed0[0][0]                     \n",
      "__________________________________________________________________________________________________\n",
      "conv2d_486 (Conv2D)             (None, 16, 16, 96)   55296       activation_485[0][0]             \n",
      "__________________________________________________________________________________________________\n",
      "batch_normalization_483 (BatchN (None, 16, 16, 48)   144         conv2d_483[0][0]                 \n",
      "__________________________________________________________________________________________________\n",
      "batch_normalization_486 (BatchN (None, 16, 16, 96)   288         conv2d_486[0][0]                 \n",
      "__________________________________________________________________________________________________\n",
      "activation_483 (Activation)     (None, 16, 16, 48)   0           batch_normalization_483[0][0]    \n",
      "__________________________________________________________________________________________________\n",
      "activation_486 (Activation)     (None, 16, 16, 96)   0           batch_normalization_486[0][0]    \n",
      "__________________________________________________________________________________________________\n",
      "average_pooling2d_46 (AveragePo (None, 16, 16, 256)  0           mixed0[0][0]                     \n",
      "__________________________________________________________________________________________________\n",
      "conv2d_482 (Conv2D)             (None, 16, 16, 64)   16384       mixed0[0][0]                     \n",
      "__________________________________________________________________________________________________\n",
      "conv2d_484 (Conv2D)             (None, 16, 16, 64)   76800       activation_483[0][0]             \n",
      "__________________________________________________________________________________________________\n",
      "conv2d_487 (Conv2D)             (None, 16, 16, 96)   82944       activation_486[0][0]             \n",
      "__________________________________________________________________________________________________\n",
      "conv2d_488 (Conv2D)             (None, 16, 16, 64)   16384       average_pooling2d_46[0][0]       \n",
      "__________________________________________________________________________________________________\n",
      "batch_normalization_482 (BatchN (None, 16, 16, 64)   192         conv2d_482[0][0]                 \n",
      "__________________________________________________________________________________________________\n",
      "batch_normalization_484 (BatchN (None, 16, 16, 64)   192         conv2d_484[0][0]                 \n",
      "__________________________________________________________________________________________________\n",
      "batch_normalization_487 (BatchN (None, 16, 16, 96)   288         conv2d_487[0][0]                 \n",
      "__________________________________________________________________________________________________\n",
      "batch_normalization_488 (BatchN (None, 16, 16, 64)   192         conv2d_488[0][0]                 \n",
      "__________________________________________________________________________________________________\n",
      "activation_482 (Activation)     (None, 16, 16, 64)   0           batch_normalization_482[0][0]    \n",
      "__________________________________________________________________________________________________\n",
      "activation_484 (Activation)     (None, 16, 16, 64)   0           batch_normalization_484[0][0]    \n",
      "__________________________________________________________________________________________________\n",
      "activation_487 (Activation)     (None, 16, 16, 96)   0           batch_normalization_487[0][0]    \n",
      "__________________________________________________________________________________________________\n",
      "activation_488 (Activation)     (None, 16, 16, 64)   0           batch_normalization_488[0][0]    \n",
      "__________________________________________________________________________________________________\n",
      "mixed1 (Concatenate)            (None, 16, 16, 288)  0           activation_482[0][0]             \n",
      "                                                                 activation_484[0][0]             \n",
      "                                                                 activation_487[0][0]             \n",
      "                                                                 activation_488[0][0]             \n",
      "__________________________________________________________________________________________________\n",
      "conv2d_492 (Conv2D)             (None, 16, 16, 64)   18432       mixed1[0][0]                     \n",
      "__________________________________________________________________________________________________\n",
      "batch_normalization_492 (BatchN (None, 16, 16, 64)   192         conv2d_492[0][0]                 \n",
      "__________________________________________________________________________________________________\n",
      "activation_492 (Activation)     (None, 16, 16, 64)   0           batch_normalization_492[0][0]    \n",
      "__________________________________________________________________________________________________\n",
      "conv2d_490 (Conv2D)             (None, 16, 16, 48)   13824       mixed1[0][0]                     \n",
      "__________________________________________________________________________________________________\n",
      "conv2d_493 (Conv2D)             (None, 16, 16, 96)   55296       activation_492[0][0]             \n",
      "__________________________________________________________________________________________________\n",
      "batch_normalization_490 (BatchN (None, 16, 16, 48)   144         conv2d_490[0][0]                 \n",
      "__________________________________________________________________________________________________\n",
      "batch_normalization_493 (BatchN (None, 16, 16, 96)   288         conv2d_493[0][0]                 \n",
      "__________________________________________________________________________________________________\n",
      "activation_490 (Activation)     (None, 16, 16, 48)   0           batch_normalization_490[0][0]    \n",
      "__________________________________________________________________________________________________\n",
      "activation_493 (Activation)     (None, 16, 16, 96)   0           batch_normalization_493[0][0]    \n",
      "__________________________________________________________________________________________________\n",
      "average_pooling2d_47 (AveragePo (None, 16, 16, 288)  0           mixed1[0][0]                     \n",
      "__________________________________________________________________________________________________\n",
      "conv2d_489 (Conv2D)             (None, 16, 16, 64)   18432       mixed1[0][0]                     \n",
      "__________________________________________________________________________________________________\n",
      "conv2d_491 (Conv2D)             (None, 16, 16, 64)   76800       activation_490[0][0]             \n",
      "__________________________________________________________________________________________________\n",
      "conv2d_494 (Conv2D)             (None, 16, 16, 96)   82944       activation_493[0][0]             \n",
      "__________________________________________________________________________________________________\n",
      "conv2d_495 (Conv2D)             (None, 16, 16, 64)   18432       average_pooling2d_47[0][0]       \n",
      "__________________________________________________________________________________________________\n",
      "batch_normalization_489 (BatchN (None, 16, 16, 64)   192         conv2d_489[0][0]                 \n",
      "__________________________________________________________________________________________________\n",
      "batch_normalization_491 (BatchN (None, 16, 16, 64)   192         conv2d_491[0][0]                 \n",
      "__________________________________________________________________________________________________\n",
      "batch_normalization_494 (BatchN (None, 16, 16, 96)   288         conv2d_494[0][0]                 \n",
      "__________________________________________________________________________________________________\n",
      "batch_normalization_495 (BatchN (None, 16, 16, 64)   192         conv2d_495[0][0]                 \n",
      "__________________________________________________________________________________________________\n",
      "activation_489 (Activation)     (None, 16, 16, 64)   0           batch_normalization_489[0][0]    \n",
      "__________________________________________________________________________________________________\n",
      "activation_491 (Activation)     (None, 16, 16, 64)   0           batch_normalization_491[0][0]    \n",
      "__________________________________________________________________________________________________\n",
      "activation_494 (Activation)     (None, 16, 16, 96)   0           batch_normalization_494[0][0]    \n",
      "__________________________________________________________________________________________________\n",
      "activation_495 (Activation)     (None, 16, 16, 64)   0           batch_normalization_495[0][0]    \n",
      "__________________________________________________________________________________________________\n",
      "mixed2 (Concatenate)            (None, 16, 16, 288)  0           activation_489[0][0]             \n",
      "                                                                 activation_491[0][0]             \n",
      "                                                                 activation_494[0][0]             \n",
      "                                                                 activation_495[0][0]             \n",
      "__________________________________________________________________________________________________\n",
      "conv2d_497 (Conv2D)             (None, 16, 16, 64)   18432       mixed2[0][0]                     \n",
      "__________________________________________________________________________________________________\n",
      "batch_normalization_497 (BatchN (None, 16, 16, 64)   192         conv2d_497[0][0]                 \n",
      "__________________________________________________________________________________________________\n",
      "activation_497 (Activation)     (None, 16, 16, 64)   0           batch_normalization_497[0][0]    \n",
      "__________________________________________________________________________________________________\n",
      "conv2d_498 (Conv2D)             (None, 16, 16, 96)   55296       activation_497[0][0]             \n",
      "__________________________________________________________________________________________________\n",
      "batch_normalization_498 (BatchN (None, 16, 16, 96)   288         conv2d_498[0][0]                 \n",
      "__________________________________________________________________________________________________\n",
      "activation_498 (Activation)     (None, 16, 16, 96)   0           batch_normalization_498[0][0]    \n",
      "__________________________________________________________________________________________________\n",
      "conv2d_496 (Conv2D)             (None, 7, 7, 384)    995328      mixed2[0][0]                     \n",
      "__________________________________________________________________________________________________\n",
      "conv2d_499 (Conv2D)             (None, 7, 7, 96)     82944       activation_498[0][0]             \n",
      "__________________________________________________________________________________________________\n",
      "batch_normalization_496 (BatchN (None, 7, 7, 384)    1152        conv2d_496[0][0]                 \n",
      "__________________________________________________________________________________________________\n",
      "batch_normalization_499 (BatchN (None, 7, 7, 96)     288         conv2d_499[0][0]                 \n",
      "__________________________________________________________________________________________________\n",
      "activation_496 (Activation)     (None, 7, 7, 384)    0           batch_normalization_496[0][0]    \n",
      "__________________________________________________________________________________________________\n",
      "activation_499 (Activation)     (None, 7, 7, 96)     0           batch_normalization_499[0][0]    \n",
      "__________________________________________________________________________________________________\n",
      "max_pooling2d_22 (MaxPooling2D) (None, 7, 7, 288)    0           mixed2[0][0]                     \n",
      "__________________________________________________________________________________________________\n",
      "mixed3 (Concatenate)            (None, 7, 7, 768)    0           activation_496[0][0]             \n",
      "                                                                 activation_499[0][0]             \n",
      "                                                                 max_pooling2d_22[0][0]           \n",
      "__________________________________________________________________________________________________\n",
      "conv2d_504 (Conv2D)             (None, 7, 7, 128)    98304       mixed3[0][0]                     \n",
      "__________________________________________________________________________________________________\n",
      "batch_normalization_504 (BatchN (None, 7, 7, 128)    384         conv2d_504[0][0]                 \n",
      "__________________________________________________________________________________________________\n",
      "activation_504 (Activation)     (None, 7, 7, 128)    0           batch_normalization_504[0][0]    \n",
      "__________________________________________________________________________________________________\n",
      "conv2d_505 (Conv2D)             (None, 7, 7, 128)    114688      activation_504[0][0]             \n",
      "__________________________________________________________________________________________________\n",
      "batch_normalization_505 (BatchN (None, 7, 7, 128)    384         conv2d_505[0][0]                 \n",
      "__________________________________________________________________________________________________\n",
      "activation_505 (Activation)     (None, 7, 7, 128)    0           batch_normalization_505[0][0]    \n",
      "__________________________________________________________________________________________________\n",
      "conv2d_501 (Conv2D)             (None, 7, 7, 128)    98304       mixed3[0][0]                     \n",
      "__________________________________________________________________________________________________\n",
      "conv2d_506 (Conv2D)             (None, 7, 7, 128)    114688      activation_505[0][0]             \n",
      "__________________________________________________________________________________________________\n",
      "batch_normalization_501 (BatchN (None, 7, 7, 128)    384         conv2d_501[0][0]                 \n",
      "__________________________________________________________________________________________________\n",
      "batch_normalization_506 (BatchN (None, 7, 7, 128)    384         conv2d_506[0][0]                 \n",
      "__________________________________________________________________________________________________\n",
      "activation_501 (Activation)     (None, 7, 7, 128)    0           batch_normalization_501[0][0]    \n",
      "__________________________________________________________________________________________________\n",
      "activation_506 (Activation)     (None, 7, 7, 128)    0           batch_normalization_506[0][0]    \n",
      "__________________________________________________________________________________________________\n",
      "conv2d_502 (Conv2D)             (None, 7, 7, 128)    114688      activation_501[0][0]             \n",
      "__________________________________________________________________________________________________\n",
      "conv2d_507 (Conv2D)             (None, 7, 7, 128)    114688      activation_506[0][0]             \n",
      "__________________________________________________________________________________________________\n",
      "batch_normalization_502 (BatchN (None, 7, 7, 128)    384         conv2d_502[0][0]                 \n",
      "__________________________________________________________________________________________________\n",
      "batch_normalization_507 (BatchN (None, 7, 7, 128)    384         conv2d_507[0][0]                 \n",
      "__________________________________________________________________________________________________\n",
      "activation_502 (Activation)     (None, 7, 7, 128)    0           batch_normalization_502[0][0]    \n",
      "__________________________________________________________________________________________________\n",
      "activation_507 (Activation)     (None, 7, 7, 128)    0           batch_normalization_507[0][0]    \n",
      "__________________________________________________________________________________________________\n",
      "average_pooling2d_48 (AveragePo (None, 7, 7, 768)    0           mixed3[0][0]                     \n",
      "__________________________________________________________________________________________________\n",
      "conv2d_500 (Conv2D)             (None, 7, 7, 192)    147456      mixed3[0][0]                     \n",
      "__________________________________________________________________________________________________\n",
      "conv2d_503 (Conv2D)             (None, 7, 7, 192)    172032      activation_502[0][0]             \n",
      "__________________________________________________________________________________________________\n",
      "conv2d_508 (Conv2D)             (None, 7, 7, 192)    172032      activation_507[0][0]             \n",
      "__________________________________________________________________________________________________\n",
      "conv2d_509 (Conv2D)             (None, 7, 7, 192)    147456      average_pooling2d_48[0][0]       \n",
      "__________________________________________________________________________________________________\n",
      "batch_normalization_500 (BatchN (None, 7, 7, 192)    576         conv2d_500[0][0]                 \n",
      "__________________________________________________________________________________________________\n",
      "batch_normalization_503 (BatchN (None, 7, 7, 192)    576         conv2d_503[0][0]                 \n",
      "__________________________________________________________________________________________________\n",
      "batch_normalization_508 (BatchN (None, 7, 7, 192)    576         conv2d_508[0][0]                 \n",
      "__________________________________________________________________________________________________\n",
      "batch_normalization_509 (BatchN (None, 7, 7, 192)    576         conv2d_509[0][0]                 \n",
      "__________________________________________________________________________________________________\n",
      "activation_500 (Activation)     (None, 7, 7, 192)    0           batch_normalization_500[0][0]    \n",
      "__________________________________________________________________________________________________\n",
      "activation_503 (Activation)     (None, 7, 7, 192)    0           batch_normalization_503[0][0]    \n",
      "__________________________________________________________________________________________________\n",
      "activation_508 (Activation)     (None, 7, 7, 192)    0           batch_normalization_508[0][0]    \n",
      "__________________________________________________________________________________________________\n",
      "activation_509 (Activation)     (None, 7, 7, 192)    0           batch_normalization_509[0][0]    \n",
      "__________________________________________________________________________________________________\n",
      "mixed4 (Concatenate)            (None, 7, 7, 768)    0           activation_500[0][0]             \n",
      "                                                                 activation_503[0][0]             \n",
      "                                                                 activation_508[0][0]             \n",
      "                                                                 activation_509[0][0]             \n",
      "__________________________________________________________________________________________________\n",
      "conv2d_514 (Conv2D)             (None, 7, 7, 160)    122880      mixed4[0][0]                     \n",
      "__________________________________________________________________________________________________\n",
      "batch_normalization_514 (BatchN (None, 7, 7, 160)    480         conv2d_514[0][0]                 \n",
      "__________________________________________________________________________________________________\n",
      "activation_514 (Activation)     (None, 7, 7, 160)    0           batch_normalization_514[0][0]    \n",
      "__________________________________________________________________________________________________\n",
      "conv2d_515 (Conv2D)             (None, 7, 7, 160)    179200      activation_514[0][0]             \n",
      "__________________________________________________________________________________________________\n",
      "batch_normalization_515 (BatchN (None, 7, 7, 160)    480         conv2d_515[0][0]                 \n",
      "__________________________________________________________________________________________________\n",
      "activation_515 (Activation)     (None, 7, 7, 160)    0           batch_normalization_515[0][0]    \n",
      "__________________________________________________________________________________________________\n",
      "conv2d_511 (Conv2D)             (None, 7, 7, 160)    122880      mixed4[0][0]                     \n",
      "__________________________________________________________________________________________________\n",
      "conv2d_516 (Conv2D)             (None, 7, 7, 160)    179200      activation_515[0][0]             \n",
      "__________________________________________________________________________________________________\n",
      "batch_normalization_511 (BatchN (None, 7, 7, 160)    480         conv2d_511[0][0]                 \n",
      "__________________________________________________________________________________________________\n",
      "batch_normalization_516 (BatchN (None, 7, 7, 160)    480         conv2d_516[0][0]                 \n",
      "__________________________________________________________________________________________________\n",
      "activation_511 (Activation)     (None, 7, 7, 160)    0           batch_normalization_511[0][0]    \n",
      "__________________________________________________________________________________________________\n",
      "activation_516 (Activation)     (None, 7, 7, 160)    0           batch_normalization_516[0][0]    \n",
      "__________________________________________________________________________________________________\n",
      "conv2d_512 (Conv2D)             (None, 7, 7, 160)    179200      activation_511[0][0]             \n",
      "__________________________________________________________________________________________________\n",
      "conv2d_517 (Conv2D)             (None, 7, 7, 160)    179200      activation_516[0][0]             \n",
      "__________________________________________________________________________________________________\n",
      "batch_normalization_512 (BatchN (None, 7, 7, 160)    480         conv2d_512[0][0]                 \n",
      "__________________________________________________________________________________________________\n",
      "batch_normalization_517 (BatchN (None, 7, 7, 160)    480         conv2d_517[0][0]                 \n",
      "__________________________________________________________________________________________________\n",
      "activation_512 (Activation)     (None, 7, 7, 160)    0           batch_normalization_512[0][0]    \n",
      "__________________________________________________________________________________________________\n",
      "activation_517 (Activation)     (None, 7, 7, 160)    0           batch_normalization_517[0][0]    \n",
      "__________________________________________________________________________________________________\n",
      "average_pooling2d_49 (AveragePo (None, 7, 7, 768)    0           mixed4[0][0]                     \n",
      "__________________________________________________________________________________________________\n",
      "conv2d_510 (Conv2D)             (None, 7, 7, 192)    147456      mixed4[0][0]                     \n",
      "__________________________________________________________________________________________________\n",
      "conv2d_513 (Conv2D)             (None, 7, 7, 192)    215040      activation_512[0][0]             \n",
      "__________________________________________________________________________________________________\n",
      "conv2d_518 (Conv2D)             (None, 7, 7, 192)    215040      activation_517[0][0]             \n",
      "__________________________________________________________________________________________________\n",
      "conv2d_519 (Conv2D)             (None, 7, 7, 192)    147456      average_pooling2d_49[0][0]       \n",
      "__________________________________________________________________________________________________\n",
      "batch_normalization_510 (BatchN (None, 7, 7, 192)    576         conv2d_510[0][0]                 \n",
      "__________________________________________________________________________________________________\n",
      "batch_normalization_513 (BatchN (None, 7, 7, 192)    576         conv2d_513[0][0]                 \n",
      "__________________________________________________________________________________________________\n",
      "batch_normalization_518 (BatchN (None, 7, 7, 192)    576         conv2d_518[0][0]                 \n",
      "__________________________________________________________________________________________________\n",
      "batch_normalization_519 (BatchN (None, 7, 7, 192)    576         conv2d_519[0][0]                 \n",
      "__________________________________________________________________________________________________\n",
      "activation_510 (Activation)     (None, 7, 7, 192)    0           batch_normalization_510[0][0]    \n",
      "__________________________________________________________________________________________________\n",
      "activation_513 (Activation)     (None, 7, 7, 192)    0           batch_normalization_513[0][0]    \n",
      "__________________________________________________________________________________________________\n",
      "activation_518 (Activation)     (None, 7, 7, 192)    0           batch_normalization_518[0][0]    \n",
      "__________________________________________________________________________________________________\n",
      "activation_519 (Activation)     (None, 7, 7, 192)    0           batch_normalization_519[0][0]    \n",
      "__________________________________________________________________________________________________\n",
      "mixed5 (Concatenate)            (None, 7, 7, 768)    0           activation_510[0][0]             \n",
      "                                                                 activation_513[0][0]             \n",
      "                                                                 activation_518[0][0]             \n",
      "                                                                 activation_519[0][0]             \n",
      "__________________________________________________________________________________________________\n",
      "conv2d_524 (Conv2D)             (None, 7, 7, 160)    122880      mixed5[0][0]                     \n",
      "__________________________________________________________________________________________________\n",
      "batch_normalization_524 (BatchN (None, 7, 7, 160)    480         conv2d_524[0][0]                 \n",
      "__________________________________________________________________________________________________\n",
      "activation_524 (Activation)     (None, 7, 7, 160)    0           batch_normalization_524[0][0]    \n",
      "__________________________________________________________________________________________________\n",
      "conv2d_525 (Conv2D)             (None, 7, 7, 160)    179200      activation_524[0][0]             \n",
      "__________________________________________________________________________________________________\n",
      "batch_normalization_525 (BatchN (None, 7, 7, 160)    480         conv2d_525[0][0]                 \n",
      "__________________________________________________________________________________________________\n",
      "activation_525 (Activation)     (None, 7, 7, 160)    0           batch_normalization_525[0][0]    \n",
      "__________________________________________________________________________________________________\n",
      "conv2d_521 (Conv2D)             (None, 7, 7, 160)    122880      mixed5[0][0]                     \n",
      "__________________________________________________________________________________________________\n",
      "conv2d_526 (Conv2D)             (None, 7, 7, 160)    179200      activation_525[0][0]             \n",
      "__________________________________________________________________________________________________\n",
      "batch_normalization_521 (BatchN (None, 7, 7, 160)    480         conv2d_521[0][0]                 \n",
      "__________________________________________________________________________________________________\n",
      "batch_normalization_526 (BatchN (None, 7, 7, 160)    480         conv2d_526[0][0]                 \n",
      "__________________________________________________________________________________________________\n",
      "activation_521 (Activation)     (None, 7, 7, 160)    0           batch_normalization_521[0][0]    \n",
      "__________________________________________________________________________________________________\n",
      "activation_526 (Activation)     (None, 7, 7, 160)    0           batch_normalization_526[0][0]    \n",
      "__________________________________________________________________________________________________\n",
      "conv2d_522 (Conv2D)             (None, 7, 7, 160)    179200      activation_521[0][0]             \n",
      "__________________________________________________________________________________________________\n",
      "conv2d_527 (Conv2D)             (None, 7, 7, 160)    179200      activation_526[0][0]             \n",
      "__________________________________________________________________________________________________\n",
      "batch_normalization_522 (BatchN (None, 7, 7, 160)    480         conv2d_522[0][0]                 \n",
      "__________________________________________________________________________________________________\n",
      "batch_normalization_527 (BatchN (None, 7, 7, 160)    480         conv2d_527[0][0]                 \n",
      "__________________________________________________________________________________________________\n",
      "activation_522 (Activation)     (None, 7, 7, 160)    0           batch_normalization_522[0][0]    \n",
      "__________________________________________________________________________________________________\n",
      "activation_527 (Activation)     (None, 7, 7, 160)    0           batch_normalization_527[0][0]    \n",
      "__________________________________________________________________________________________________\n",
      "average_pooling2d_50 (AveragePo (None, 7, 7, 768)    0           mixed5[0][0]                     \n",
      "__________________________________________________________________________________________________\n",
      "conv2d_520 (Conv2D)             (None, 7, 7, 192)    147456      mixed5[0][0]                     \n",
      "__________________________________________________________________________________________________\n",
      "conv2d_523 (Conv2D)             (None, 7, 7, 192)    215040      activation_522[0][0]             \n",
      "__________________________________________________________________________________________________\n",
      "conv2d_528 (Conv2D)             (None, 7, 7, 192)    215040      activation_527[0][0]             \n",
      "__________________________________________________________________________________________________\n",
      "conv2d_529 (Conv2D)             (None, 7, 7, 192)    147456      average_pooling2d_50[0][0]       \n",
      "__________________________________________________________________________________________________\n",
      "batch_normalization_520 (BatchN (None, 7, 7, 192)    576         conv2d_520[0][0]                 \n",
      "__________________________________________________________________________________________________\n",
      "batch_normalization_523 (BatchN (None, 7, 7, 192)    576         conv2d_523[0][0]                 \n",
      "__________________________________________________________________________________________________\n",
      "batch_normalization_528 (BatchN (None, 7, 7, 192)    576         conv2d_528[0][0]                 \n",
      "__________________________________________________________________________________________________\n",
      "batch_normalization_529 (BatchN (None, 7, 7, 192)    576         conv2d_529[0][0]                 \n",
      "__________________________________________________________________________________________________\n",
      "activation_520 (Activation)     (None, 7, 7, 192)    0           batch_normalization_520[0][0]    \n",
      "__________________________________________________________________________________________________\n",
      "activation_523 (Activation)     (None, 7, 7, 192)    0           batch_normalization_523[0][0]    \n",
      "__________________________________________________________________________________________________\n",
      "activation_528 (Activation)     (None, 7, 7, 192)    0           batch_normalization_528[0][0]    \n",
      "__________________________________________________________________________________________________\n",
      "activation_529 (Activation)     (None, 7, 7, 192)    0           batch_normalization_529[0][0]    \n",
      "__________________________________________________________________________________________________\n",
      "mixed6 (Concatenate)            (None, 7, 7, 768)    0           activation_520[0][0]             \n",
      "                                                                 activation_523[0][0]             \n",
      "                                                                 activation_528[0][0]             \n",
      "                                                                 activation_529[0][0]             \n",
      "__________________________________________________________________________________________________\n",
      "conv2d_534 (Conv2D)             (None, 7, 7, 192)    147456      mixed6[0][0]                     \n",
      "__________________________________________________________________________________________________\n",
      "batch_normalization_534 (BatchN (None, 7, 7, 192)    576         conv2d_534[0][0]                 \n",
      "__________________________________________________________________________________________________\n",
      "activation_534 (Activation)     (None, 7, 7, 192)    0           batch_normalization_534[0][0]    \n",
      "__________________________________________________________________________________________________\n",
      "conv2d_535 (Conv2D)             (None, 7, 7, 192)    258048      activation_534[0][0]             \n",
      "__________________________________________________________________________________________________\n",
      "batch_normalization_535 (BatchN (None, 7, 7, 192)    576         conv2d_535[0][0]                 \n",
      "__________________________________________________________________________________________________\n",
      "activation_535 (Activation)     (None, 7, 7, 192)    0           batch_normalization_535[0][0]    \n",
      "__________________________________________________________________________________________________\n",
      "conv2d_531 (Conv2D)             (None, 7, 7, 192)    147456      mixed6[0][0]                     \n",
      "__________________________________________________________________________________________________\n",
      "conv2d_536 (Conv2D)             (None, 7, 7, 192)    258048      activation_535[0][0]             \n",
      "__________________________________________________________________________________________________\n",
      "batch_normalization_531 (BatchN (None, 7, 7, 192)    576         conv2d_531[0][0]                 \n",
      "__________________________________________________________________________________________________\n",
      "batch_normalization_536 (BatchN (None, 7, 7, 192)    576         conv2d_536[0][0]                 \n",
      "__________________________________________________________________________________________________\n",
      "activation_531 (Activation)     (None, 7, 7, 192)    0           batch_normalization_531[0][0]    \n",
      "__________________________________________________________________________________________________\n",
      "activation_536 (Activation)     (None, 7, 7, 192)    0           batch_normalization_536[0][0]    \n",
      "__________________________________________________________________________________________________\n",
      "conv2d_532 (Conv2D)             (None, 7, 7, 192)    258048      activation_531[0][0]             \n",
      "__________________________________________________________________________________________________\n",
      "conv2d_537 (Conv2D)             (None, 7, 7, 192)    258048      activation_536[0][0]             \n",
      "__________________________________________________________________________________________________\n",
      "batch_normalization_532 (BatchN (None, 7, 7, 192)    576         conv2d_532[0][0]                 \n",
      "__________________________________________________________________________________________________\n",
      "batch_normalization_537 (BatchN (None, 7, 7, 192)    576         conv2d_537[0][0]                 \n",
      "__________________________________________________________________________________________________\n",
      "activation_532 (Activation)     (None, 7, 7, 192)    0           batch_normalization_532[0][0]    \n",
      "__________________________________________________________________________________________________\n",
      "activation_537 (Activation)     (None, 7, 7, 192)    0           batch_normalization_537[0][0]    \n",
      "__________________________________________________________________________________________________\n",
      "average_pooling2d_51 (AveragePo (None, 7, 7, 768)    0           mixed6[0][0]                     \n",
      "__________________________________________________________________________________________________\n",
      "conv2d_530 (Conv2D)             (None, 7, 7, 192)    147456      mixed6[0][0]                     \n",
      "__________________________________________________________________________________________________\n",
      "conv2d_533 (Conv2D)             (None, 7, 7, 192)    258048      activation_532[0][0]             \n",
      "__________________________________________________________________________________________________\n",
      "conv2d_538 (Conv2D)             (None, 7, 7, 192)    258048      activation_537[0][0]             \n",
      "__________________________________________________________________________________________________\n",
      "conv2d_539 (Conv2D)             (None, 7, 7, 192)    147456      average_pooling2d_51[0][0]       \n",
      "__________________________________________________________________________________________________\n",
      "batch_normalization_530 (BatchN (None, 7, 7, 192)    576         conv2d_530[0][0]                 \n",
      "__________________________________________________________________________________________________\n",
      "batch_normalization_533 (BatchN (None, 7, 7, 192)    576         conv2d_533[0][0]                 \n",
      "__________________________________________________________________________________________________\n",
      "batch_normalization_538 (BatchN (None, 7, 7, 192)    576         conv2d_538[0][0]                 \n",
      "__________________________________________________________________________________________________\n",
      "batch_normalization_539 (BatchN (None, 7, 7, 192)    576         conv2d_539[0][0]                 \n",
      "__________________________________________________________________________________________________\n",
      "activation_530 (Activation)     (None, 7, 7, 192)    0           batch_normalization_530[0][0]    \n",
      "__________________________________________________________________________________________________\n",
      "activation_533 (Activation)     (None, 7, 7, 192)    0           batch_normalization_533[0][0]    \n",
      "__________________________________________________________________________________________________\n",
      "activation_538 (Activation)     (None, 7, 7, 192)    0           batch_normalization_538[0][0]    \n",
      "__________________________________________________________________________________________________\n",
      "activation_539 (Activation)     (None, 7, 7, 192)    0           batch_normalization_539[0][0]    \n",
      "__________________________________________________________________________________________________\n",
      "mixed7 (Concatenate)            (None, 7, 7, 768)    0           activation_530[0][0]             \n",
      "                                                                 activation_533[0][0]             \n",
      "                                                                 activation_538[0][0]             \n",
      "                                                                 activation_539[0][0]             \n",
      "__________________________________________________________________________________________________\n",
      "conv2d_542 (Conv2D)             (None, 7, 7, 192)    147456      mixed7[0][0]                     \n",
      "__________________________________________________________________________________________________\n",
      "batch_normalization_542 (BatchN (None, 7, 7, 192)    576         conv2d_542[0][0]                 \n",
      "__________________________________________________________________________________________________\n",
      "activation_542 (Activation)     (None, 7, 7, 192)    0           batch_normalization_542[0][0]    \n",
      "__________________________________________________________________________________________________\n",
      "conv2d_543 (Conv2D)             (None, 7, 7, 192)    258048      activation_542[0][0]             \n",
      "__________________________________________________________________________________________________\n",
      "batch_normalization_543 (BatchN (None, 7, 7, 192)    576         conv2d_543[0][0]                 \n",
      "__________________________________________________________________________________________________\n",
      "activation_543 (Activation)     (None, 7, 7, 192)    0           batch_normalization_543[0][0]    \n",
      "__________________________________________________________________________________________________\n",
      "conv2d_540 (Conv2D)             (None, 7, 7, 192)    147456      mixed7[0][0]                     \n",
      "__________________________________________________________________________________________________\n",
      "conv2d_544 (Conv2D)             (None, 7, 7, 192)    258048      activation_543[0][0]             \n",
      "__________________________________________________________________________________________________\n",
      "batch_normalization_540 (BatchN (None, 7, 7, 192)    576         conv2d_540[0][0]                 \n",
      "__________________________________________________________________________________________________\n",
      "batch_normalization_544 (BatchN (None, 7, 7, 192)    576         conv2d_544[0][0]                 \n",
      "__________________________________________________________________________________________________\n",
      "activation_540 (Activation)     (None, 7, 7, 192)    0           batch_normalization_540[0][0]    \n",
      "__________________________________________________________________________________________________\n",
      "activation_544 (Activation)     (None, 7, 7, 192)    0           batch_normalization_544[0][0]    \n",
      "__________________________________________________________________________________________________\n",
      "conv2d_541 (Conv2D)             (None, 3, 3, 320)    552960      activation_540[0][0]             \n",
      "__________________________________________________________________________________________________\n",
      "conv2d_545 (Conv2D)             (None, 3, 3, 192)    331776      activation_544[0][0]             \n",
      "__________________________________________________________________________________________________\n",
      "batch_normalization_541 (BatchN (None, 3, 3, 320)    960         conv2d_541[0][0]                 \n",
      "__________________________________________________________________________________________________\n",
      "batch_normalization_545 (BatchN (None, 3, 3, 192)    576         conv2d_545[0][0]                 \n",
      "__________________________________________________________________________________________________\n",
      "activation_541 (Activation)     (None, 3, 3, 320)    0           batch_normalization_541[0][0]    \n",
      "__________________________________________________________________________________________________\n",
      "activation_545 (Activation)     (None, 3, 3, 192)    0           batch_normalization_545[0][0]    \n",
      "__________________________________________________________________________________________________\n",
      "max_pooling2d_23 (MaxPooling2D) (None, 3, 3, 768)    0           mixed7[0][0]                     \n",
      "__________________________________________________________________________________________________\n",
      "mixed8 (Concatenate)            (None, 3, 3, 1280)   0           activation_541[0][0]             \n",
      "                                                                 activation_545[0][0]             \n",
      "                                                                 max_pooling2d_23[0][0]           \n",
      "__________________________________________________________________________________________________\n",
      "conv2d_550 (Conv2D)             (None, 3, 3, 448)    573440      mixed8[0][0]                     \n",
      "__________________________________________________________________________________________________\n",
      "batch_normalization_550 (BatchN (None, 3, 3, 448)    1344        conv2d_550[0][0]                 \n",
      "__________________________________________________________________________________________________\n",
      "activation_550 (Activation)     (None, 3, 3, 448)    0           batch_normalization_550[0][0]    \n",
      "__________________________________________________________________________________________________\n",
      "conv2d_547 (Conv2D)             (None, 3, 3, 384)    491520      mixed8[0][0]                     \n",
      "__________________________________________________________________________________________________\n",
      "conv2d_551 (Conv2D)             (None, 3, 3, 384)    1548288     activation_550[0][0]             \n",
      "__________________________________________________________________________________________________\n",
      "batch_normalization_547 (BatchN (None, 3, 3, 384)    1152        conv2d_547[0][0]                 \n",
      "__________________________________________________________________________________________________\n",
      "batch_normalization_551 (BatchN (None, 3, 3, 384)    1152        conv2d_551[0][0]                 \n",
      "__________________________________________________________________________________________________\n",
      "activation_547 (Activation)     (None, 3, 3, 384)    0           batch_normalization_547[0][0]    \n",
      "__________________________________________________________________________________________________\n",
      "activation_551 (Activation)     (None, 3, 3, 384)    0           batch_normalization_551[0][0]    \n",
      "__________________________________________________________________________________________________\n",
      "conv2d_548 (Conv2D)             (None, 3, 3, 384)    442368      activation_547[0][0]             \n",
      "__________________________________________________________________________________________________\n",
      "conv2d_549 (Conv2D)             (None, 3, 3, 384)    442368      activation_547[0][0]             \n",
      "__________________________________________________________________________________________________\n",
      "conv2d_552 (Conv2D)             (None, 3, 3, 384)    442368      activation_551[0][0]             \n",
      "__________________________________________________________________________________________________\n",
      "conv2d_553 (Conv2D)             (None, 3, 3, 384)    442368      activation_551[0][0]             \n",
      "__________________________________________________________________________________________________\n",
      "average_pooling2d_52 (AveragePo (None, 3, 3, 1280)   0           mixed8[0][0]                     \n",
      "__________________________________________________________________________________________________\n",
      "conv2d_546 (Conv2D)             (None, 3, 3, 320)    409600      mixed8[0][0]                     \n",
      "__________________________________________________________________________________________________\n",
      "batch_normalization_548 (BatchN (None, 3, 3, 384)    1152        conv2d_548[0][0]                 \n",
      "__________________________________________________________________________________________________\n",
      "batch_normalization_549 (BatchN (None, 3, 3, 384)    1152        conv2d_549[0][0]                 \n",
      "__________________________________________________________________________________________________\n",
      "batch_normalization_552 (BatchN (None, 3, 3, 384)    1152        conv2d_552[0][0]                 \n",
      "__________________________________________________________________________________________________\n",
      "batch_normalization_553 (BatchN (None, 3, 3, 384)    1152        conv2d_553[0][0]                 \n",
      "__________________________________________________________________________________________________\n",
      "conv2d_554 (Conv2D)             (None, 3, 3, 192)    245760      average_pooling2d_52[0][0]       \n",
      "__________________________________________________________________________________________________\n",
      "batch_normalization_546 (BatchN (None, 3, 3, 320)    960         conv2d_546[0][0]                 \n",
      "__________________________________________________________________________________________________\n",
      "activation_548 (Activation)     (None, 3, 3, 384)    0           batch_normalization_548[0][0]    \n",
      "__________________________________________________________________________________________________\n",
      "activation_549 (Activation)     (None, 3, 3, 384)    0           batch_normalization_549[0][0]    \n",
      "__________________________________________________________________________________________________\n",
      "activation_552 (Activation)     (None, 3, 3, 384)    0           batch_normalization_552[0][0]    \n",
      "__________________________________________________________________________________________________\n",
      "activation_553 (Activation)     (None, 3, 3, 384)    0           batch_normalization_553[0][0]    \n",
      "__________________________________________________________________________________________________\n",
      "batch_normalization_554 (BatchN (None, 3, 3, 192)    576         conv2d_554[0][0]                 \n",
      "__________________________________________________________________________________________________\n",
      "activation_546 (Activation)     (None, 3, 3, 320)    0           batch_normalization_546[0][0]    \n",
      "__________________________________________________________________________________________________\n",
      "mixed9_0 (Concatenate)          (None, 3, 3, 768)    0           activation_548[0][0]             \n",
      "                                                                 activation_549[0][0]             \n",
      "__________________________________________________________________________________________________\n",
      "concatenate_10 (Concatenate)    (None, 3, 3, 768)    0           activation_552[0][0]             \n",
      "                                                                 activation_553[0][0]             \n",
      "__________________________________________________________________________________________________\n",
      "activation_554 (Activation)     (None, 3, 3, 192)    0           batch_normalization_554[0][0]    \n",
      "__________________________________________________________________________________________________\n",
      "mixed9 (Concatenate)            (None, 3, 3, 2048)   0           activation_546[0][0]             \n",
      "                                                                 mixed9_0[0][0]                   \n",
      "                                                                 concatenate_10[0][0]             \n",
      "                                                                 activation_554[0][0]             \n",
      "__________________________________________________________________________________________________\n",
      "conv2d_559 (Conv2D)             (None, 3, 3, 448)    917504      mixed9[0][0]                     \n",
      "__________________________________________________________________________________________________\n",
      "batch_normalization_559 (BatchN (None, 3, 3, 448)    1344        conv2d_559[0][0]                 \n",
      "__________________________________________________________________________________________________\n",
      "activation_559 (Activation)     (None, 3, 3, 448)    0           batch_normalization_559[0][0]    \n",
      "__________________________________________________________________________________________________\n",
      "conv2d_556 (Conv2D)             (None, 3, 3, 384)    786432      mixed9[0][0]                     \n",
      "__________________________________________________________________________________________________\n",
      "conv2d_560 (Conv2D)             (None, 3, 3, 384)    1548288     activation_559[0][0]             \n",
      "__________________________________________________________________________________________________\n",
      "batch_normalization_556 (BatchN (None, 3, 3, 384)    1152        conv2d_556[0][0]                 \n",
      "__________________________________________________________________________________________________\n",
      "batch_normalization_560 (BatchN (None, 3, 3, 384)    1152        conv2d_560[0][0]                 \n",
      "__________________________________________________________________________________________________\n",
      "activation_556 (Activation)     (None, 3, 3, 384)    0           batch_normalization_556[0][0]    \n",
      "__________________________________________________________________________________________________\n",
      "activation_560 (Activation)     (None, 3, 3, 384)    0           batch_normalization_560[0][0]    \n",
      "__________________________________________________________________________________________________\n",
      "conv2d_557 (Conv2D)             (None, 3, 3, 384)    442368      activation_556[0][0]             \n",
      "__________________________________________________________________________________________________\n",
      "conv2d_558 (Conv2D)             (None, 3, 3, 384)    442368      activation_556[0][0]             \n",
      "__________________________________________________________________________________________________\n",
      "conv2d_561 (Conv2D)             (None, 3, 3, 384)    442368      activation_560[0][0]             \n",
      "__________________________________________________________________________________________________\n",
      "conv2d_562 (Conv2D)             (None, 3, 3, 384)    442368      activation_560[0][0]             \n",
      "__________________________________________________________________________________________________\n",
      "average_pooling2d_53 (AveragePo (None, 3, 3, 2048)   0           mixed9[0][0]                     \n",
      "__________________________________________________________________________________________________\n",
      "conv2d_555 (Conv2D)             (None, 3, 3, 320)    655360      mixed9[0][0]                     \n",
      "__________________________________________________________________________________________________\n",
      "batch_normalization_557 (BatchN (None, 3, 3, 384)    1152        conv2d_557[0][0]                 \n",
      "__________________________________________________________________________________________________\n",
      "batch_normalization_558 (BatchN (None, 3, 3, 384)    1152        conv2d_558[0][0]                 \n",
      "__________________________________________________________________________________________________\n",
      "batch_normalization_561 (BatchN (None, 3, 3, 384)    1152        conv2d_561[0][0]                 \n",
      "__________________________________________________________________________________________________\n",
      "batch_normalization_562 (BatchN (None, 3, 3, 384)    1152        conv2d_562[0][0]                 \n",
      "__________________________________________________________________________________________________\n",
      "conv2d_563 (Conv2D)             (None, 3, 3, 192)    393216      average_pooling2d_53[0][0]       \n",
      "__________________________________________________________________________________________________\n",
      "batch_normalization_555 (BatchN (None, 3, 3, 320)    960         conv2d_555[0][0]                 \n",
      "__________________________________________________________________________________________________\n",
      "activation_557 (Activation)     (None, 3, 3, 384)    0           batch_normalization_557[0][0]    \n",
      "__________________________________________________________________________________________________\n",
      "activation_558 (Activation)     (None, 3, 3, 384)    0           batch_normalization_558[0][0]    \n",
      "__________________________________________________________________________________________________\n",
      "activation_561 (Activation)     (None, 3, 3, 384)    0           batch_normalization_561[0][0]    \n",
      "__________________________________________________________________________________________________\n",
      "activation_562 (Activation)     (None, 3, 3, 384)    0           batch_normalization_562[0][0]    \n",
      "__________________________________________________________________________________________________\n",
      "batch_normalization_563 (BatchN (None, 3, 3, 192)    576         conv2d_563[0][0]                 \n",
      "__________________________________________________________________________________________________\n",
      "activation_555 (Activation)     (None, 3, 3, 320)    0           batch_normalization_555[0][0]    \n",
      "__________________________________________________________________________________________________\n",
      "mixed9_1 (Concatenate)          (None, 3, 3, 768)    0           activation_557[0][0]             \n",
      "                                                                 activation_558[0][0]             \n",
      "__________________________________________________________________________________________________\n",
      "concatenate_11 (Concatenate)    (None, 3, 3, 768)    0           activation_561[0][0]             \n",
      "                                                                 activation_562[0][0]             \n",
      "__________________________________________________________________________________________________\n",
      "activation_563 (Activation)     (None, 3, 3, 192)    0           batch_normalization_563[0][0]    \n",
      "__________________________________________________________________________________________________\n",
      "mixed10 (Concatenate)           (None, 3, 3, 2048)   0           activation_555[0][0]             \n",
      "                                                                 mixed9_1[0][0]                   \n",
      "                                                                 concatenate_11[0][0]             \n",
      "                                                                 activation_563[0][0]             \n",
      "==================================================================================================\n",
…
    "local_weights_file = path_inception\n",
    "\n",
    "pre_trained_model = InceptionV3(input_shape=(150,150,3), include_top= False, weights = None)\n",
    "\n",
    "pre_trained_model.load_weights(local_weights_file)\n",
    "\n",
    "# Make all the layers in the pre-trained model non-trainable\n",
    "for layer in pre_trained_model.layers:\n",
    "  # Your Code Here\n",
    "  layer.trainable = False\n",
    "# Print the model summary\n",
    "pre_trained_model.summary()\n",
    "\n",
    "# Expected Output is extremely large, but should end with:\n",
    "\n",
    "#batch_normalization_v1_281 (Bat (None, 3, 3, 192)    576         conv2d_281[0][0]                 \n",
    "#__________________________________________________________________________________________________\n",
    "#activation_273 (Activation)     (None, 3, 3, 320)    0           batch_normalization_v1_273[0][0] \n",
    "#__________________________________________________________________________________________________\n",
    "#mixed9_1 (Concatenate)          (None, 3, 3, 768)    0           activation_275[0][0]             \n",
    "#                                                                 activation_276[0][0]             \n",
    "#__________________________________________________________________________________________________\n",
    "#concatenate_5 (Concatenate)     (None, 3, 3, 768)    0           activation_279[0][0]             \n",
    "#                                                                 activation_280[0][0]             \n",
    "#__________________________________________________________________________________________________\n",
    "#activation_281 (Activation)     (None, 3, 3, 192)    0           batch_normalization_v1_281[0][0] \n",
    "#__________________________________________________________________________________________________\n",
    "#mixed10 (Concatenate)           (None, 3, 3, 2048)   0           activation_273[0][0]             \n",
    "#                                                                 mixed9_1[0][0]                   \n",
    "#                                                                 concatenate_5[0][0]              \n",
    "#                                                                 activation_281[0][0]             \n",
    "#==================================================================================================\n",
…
   "execution_count": 42,
   "metadata": {
    "colab": {},
    "colab_type": "code",
    "id": "BMXb913pbvFg"
   },
   "outputs": [
    {
     "name": "stdout",
     "output_type": "stream",
     "text": [
      "Model: \"model_4\"\n",
      "__________________________________________________________________________________________________\n",
      "Layer (type)                    Output Shape         Param #     Connected to                     \n",
      "==================================================================================================\n",
      "input_6 (InputLayer)            [(None, 150, 150, 3) 0                                            \n",
      "__________________________________________________________________________________________________\n",
      "conv2d_470 (Conv2D)             (None, 74, 74, 32)   864         input_6[0][0]                    \n",
      "__________________________________________________________________________________________________\n",
      "batch_normalization_470 (BatchN (None, 74, 74, 32)   96          conv2d_470[0][0]                 \n",
      "__________________________________________________________________________________________________\n",
      "activation_470 (Activation)     (None, 74, 74, 32)   0           batch_normalization_470[0][0]    \n",
      "__________________________________________________________________________________________________\n",
      "conv2d_471 (Conv2D)             (None, 72, 72, 32)   9216        activation_470[0][0]             \n",
      "__________________________________________________________________________________________________\n",
      "batch_normalization_471 (BatchN (None, 72, 72, 32)   96          conv2d_471[0][0]                 \n",
      "__________________________________________________________________________________________________\n",
      "activation_471 (Activation)     (None, 72, 72, 32)   0           batch_normalization_471[0][0]    \n",
      "__________________________________________________________________________________________________\n",
      "conv2d_472 (Conv2D)             (None, 72, 72, 64)   18432       activation_471[0][0]             \n",
      "__________________________________________________________________________________________________\n",
      "batch_normalization_472 (BatchN (None, 72, 72, 64)   192         conv2d_472[0][0]                 \n",
      "__________________________________________________________________________________________________\n",
      "activation_472 (Activation)     (None, 72, 72, 64)   0           batch_normalization_472[0][0]    \n",
      "__________________________________________________________________________________________________\n",
      "max_pooling2d_20 (MaxPooling2D) (None, 35, 35, 64)   0           activation_472[0][0]             \n",
      "__________________________________________________________________________________________________\n",
      "conv2d_473 (Conv2D)             (None, 35, 35, 80)   5120        max_pooling2d_20[0][0]           \n",
      "__________________________________________________________________________________________________\n",
      "batch_normalization_473 (BatchN (None, 35, 35, 80)   240         conv2d_473[0][0]                 \n",
      "__________________________________________________________________________________________________\n",
      "activation_473 (Activation)     (None, 35, 35, 80)   0           batch_normalization_473[0][0]    \n",
      "__________________________________________________________________________________________________\n",
      "conv2d_474 (Conv2D)             (None, 33, 33, 192)  138240      activation_473[0][0]             \n",
      "__________________________________________________________________________________________________\n",
      "batch_normalization_474 (BatchN (None, 33, 33, 192)  576         conv2d_474[0][0]                 \n",
      "__________________________________________________________________________________________________\n",
      "activation_474 (Activation)     (None, 33, 33, 192)  0           batch_normalization_474[0][0]    \n",
      "__________________________________________________________________________________________________\n",
      "max_pooling2d_21 (MaxPooling2D) (None, 16, 16, 192)  0           activation_474[0][0]             \n",
      "__________________________________________________________________________________________________\n",
      "conv2d_478 (Conv2D)             (None, 16, 16, 64)   12288       max_pooling2d_21[0][0]           \n",
      "__________________________________________________________________________________________________\n",
      "batch_normalization_478 (BatchN (None, 16, 16, 64)   192         conv2d_478[0][0]                 \n",
      "__________________________________________________________________________________________________\n",
      "activation_478 (Activation)     (None, 16, 16, 64)   0           batch_normalization_478[0][0]    \n",
      "__________________________________________________________________________________________________\n",
      "conv2d_476 (Conv2D)             (None, 16, 16, 48)   9216        max_pooling2d_21[0][0]           \n",
      "__________________________________________________________________________________________________\n",
      "conv2d_479 (Conv2D)             (None, 16, 16, 96)   55296       activation_478[0][0]             \n",
      "__________________________________________________________________________________________________\n",
      "batch_normalization_476 (BatchN (None, 16, 16, 48)   144         conv2d_476[0][0]                 \n",
      "__________________________________________________________________________________________________\n",
      "batch_normalization_479 (BatchN (None, 16, 16, 96)   288         conv2d_479[0][0]                 \n",
      "__________________________________________________________________________________________________\n",
      "activation_476 (Activation)     (None, 16, 16, 48)   0           batch_normalization_476[0][0]    \n",
      "__________________________________________________________________________________________________\n",
      "activation_479 (Activation)     (None, 16, 16, 96)   0           batch_normalization_479[0][0]    \n",
      "__________________________________________________________________________________________________\n",
      "average_pooling2d_45 (AveragePo (None, 16, 16, 192)  0           max_pooling2d_21[0][0]           \n",
      "__________________________________________________________________________________________________\n",
      "conv2d_475 (Conv2D)             (None, 16, 16, 64)   12288       max_pooling2d_21[0][0]           \n",
      "__________________________________________________________________________________________________\n",
      "conv2d_477 (Conv2D)             (None, 16, 16, 64)   76800       activation_476[0][0]             \n",
      "__________________________________________________________________________________________________\n",
      "conv2d_480 (Conv2D)             (None, 16, 16, 96)   82944       activation_479[0][0]             \n",
      "__________________________________________________________________________________________________\n",
      "conv2d_481 (Conv2D)             (None, 16, 16, 32)   6144        average_pooling2d_45[0][0]       \n",
      "__________________________________________________________________________________________________\n",
      "batch_normalization_475 (BatchN (None, 16, 16, 64)   192         conv2d_475[0][0]                 \n",
      "__________________________________________________________________________________________________\n",
      "batch_normalization_477 (BatchN (None, 16, 16, 64)   192         conv2d_477[0][0]                 \n",
      "__________________________________________________________________________________________________\n",
      "batch_normalization_480 (BatchN (None, 16, 16, 96)   288         conv2d_480[0][0]                 \n",
      "__________________________________________________________________________________________________\n",
      "batch_normalization_481 (BatchN (None, 16, 16, 32)   96          conv2d_481[0][0]                 \n",
      "__________________________________________________________________________________________________\n",
      "activation_475 (Activation)     (None, 16, 16, 64)   0           batch_normalization_475[0][0]    \n",
      "__________________________________________________________________________________________________\n",
      "activation_477 (Activation)     (None, 16, 16, 64)   0           batch_normalization_477[0][0]    \n",
      "__________________________________________________________________________________________________\n",
      "activation_480 (Activation)     (None, 16, 16, 96)   0           batch_normalization_480[0][0]    \n",
      "__________________________________________________________________________________________________\n",
      "activation_481 (Activation)     (None, 16, 16, 32)   0           batch_normalization_481[0][0]    \n",
      "__________________________________________________________________________________________________\n",
      "mixed0 (Concatenate)            (None, 16, 16, 256)  0           activation_475[0][0]             \n",
      "                                                                 activation_477[0][0]             \n",
      "                                                                 activation_480[0][0]             \n",
      "                                                                 activation_481[0][0]             \n",
      "__________________________________________________________________________________________________\n",
      "conv2d_485 (Conv2D)             (None, 16, 16, 64)   16384       mixed0[0][0]                     \n",
      "__________________________________________________________________________________________________\n",
      "batch_normalization_485 (BatchN (None, 16, 16, 64)   192         conv2d_485[0][0]                 \n",
      "__________________________________________________________________________________________________\n",
      "activation_485 (Activation)     (None, 16, 16, 64)   0           batch_normalization_485[0][0]    \n",
      "__________________________________________________________________________________________________\n",
      "conv2d_483 (Conv2D)             (None, 16, 16, 48)   12288       mixed0[0][0]                     \n",
      "__________________________________________________________________________________________________\n",
      "conv2d_486 (Conv2D)             (None, 16, 16, 96)   55296       activation_485[0][0]             \n",
      "__________________________________________________________________________________________________\n",
      "batch_normalization_483 (BatchN (None, 16, 16, 48)   144         conv2d_483[0][0]                 \n",
      "__________________________________________________________________________________________________\n",
      "batch_normalization_486 (BatchN (None, 16, 16, 96)   288         conv2d_486[0][0]                 \n",
      "__________________________________________________________________________________________________\n",
      "activation_483 (Activation)     (None, 16, 16, 48)   0           batch_normalization_483[0][0]    \n",
      "__________________________________________________________________________________________________\n",
      "activation_486 (Activation)     (None, 16, 16, 96)   0           batch_normalization_486[0][0]    \n",
      "__________________________________________________________________________________________________\n",
      "average_pooling2d_46 (AveragePo (None, 16, 16, 256)  0           mixed0[0][0]                     \n",
      "__________________________________________________________________________________________________\n",
      "conv2d_482 (Conv2D)             (None, 16, 16, 64)   16384       mixed0[0][0]                     \n",
      "__________________________________________________________________________________________________\n",
      "conv2d_484 (Conv2D)             (None, 16, 16, 64)   76800       activation_483[0][0]             \n",
      "__________________________________________________________________________________________________\n",
      "conv2d_487 (Conv2D)             (None, 16, 16, 96)   82944       activation_486[0][0]             \n",
      "__________________________________________________________________________________________________\n",
      "conv2d_488 (Conv2D)             (None, 16, 16, 64)   16384       average_pooling2d_46[0][0]       \n",
      "__________________________________________________________________________________________________\n",
      "batch_normalization_482 (BatchN (None, 16, 16, 64)   192         conv2d_482[0][0]                 \n",
      "__________________________________________________________________________________________________\n",
      "batch_normalization_484 (BatchN (None, 16, 16, 64)   192         conv2d_484[0][0]                 \n",
      "__________________________________________________________________________________________________\n",
      "batch_normalization_487 (BatchN (None, 16, 16, 96)   288         conv2d_487[0][0]                 \n",
      "__________________________________________________________________________________________________\n",
      "batch_normalization_488 (BatchN (None, 16, 16, 64)   192         conv2d_488[0][0]                 \n",
      "__________________________________________________________________________________________________\n",
      "activation_482 (Activation)     (None, 16, 16, 64)   0           batch_normalization_482[0][0]    \n",
      "__________________________________________________________________________________________________\n",
      "activation_484 (Activation)     (None, 16, 16, 64)   0           batch_normalization_484[0][0]    \n",
      "__________________________________________________________________________________________________\n",
      "activation_487 (Activation)     (None, 16, 16, 96)   0           batch_normalization_487[0][0]    \n",
      "__________________________________________________________________________________________________\n",
      "activation_488 (Activation)     (None, 16, 16, 64)   0           batch_normalization_488[0][0]    \n",
      "__________________________________________________________________________________________________\n",
      "mixed1 (Concatenate)            (None, 16, 16, 288)  0           activation_482[0][0]             \n",
      "                                                                 activation_484[0][0]             \n",
      "                                                                 activation_487[0][0]             \n",
      "                                                                 activation_488[0][0]             \n",
      "__________________________________________________________________________________________________\n",
      "conv2d_492 (Conv2D)             (None, 16, 16, 64)   18432       mixed1[0][0]                     \n",
      "__________________________________________________________________________________________________\n",
      "batch_normalization_492 (BatchN (None, 16, 16, 64)   192         conv2d_492[0][0]                 \n",
      "__________________________________________________________________________________________________\n",
      "activation_492 (Activation)     (None, 16, 16, 64)   0           batch_normalization_492[0][0]    \n",
      "__________________________________________________________________________________________________\n",
      "conv2d_490 (Conv2D)             (None, 16, 16, 48)   13824       mixed1[0][0]                     \n",
      "__________________________________________________________________________________________________\n",
      "conv2d_493 (Conv2D)             (None, 16, 16, 96)   55296       activation_492[0][0]             \n",
      "__________________________________________________________________________________________________\n",
      "batch_normalization_490 (BatchN (None, 16, 16, 48)   144         conv2d_490[0][0]                 \n",
      "__________________________________________________________________________________________________\n",
      "batch_normalization_493 (BatchN (None, 16, 16, 96)   288         conv2d_493[0][0]                 \n",
      "__________________________________________________________________________________________________\n",
      "activation_490 (Activation)     (None, 16, 16, 48)   0           batch_normalization_490[0][0]    \n",
      "__________________________________________________________________________________________________\n",
      "activation_493 (Activation)     (None, 16, 16, 96)   0           batch_normalization_493[0][0]    \n",
      "__________________________________________________________________________________________________\n",
      "average_pooling2d_47 (AveragePo (None, 16, 16, 288)  0           mixed1[0][0]                     \n",
      "__________________________________________________________________________________________________\n",
      "conv2d_489 (Conv2D)             (None, 16, 16, 64)   18432       mixed1[0][0]                     \n",
      "__________________________________________________________________________________________________\n",
      "conv2d_491 (Conv2D)             (None, 16, 16, 64)   76800       activation_490[0][0]             \n",
      "__________________________________________________________________________________________________\n",
      "conv2d_494 (Conv2D)             (None, 16, 16, 96)   82944       activation_493[0][0]             \n",
      "__________________________________________________________________________________________________\n",
      "conv2d_495 (Conv2D)             (None, 16, 16, 64)   18432       average_pooling2d_47[0][0]       \n",
      "__________________________________________________________________________________________________\n",
      "batch_normalization_489 (BatchN (None, 16, 16, 64)   192         conv2d_489[0][0]                 \n",
      "__________________________________________________________________________________________________\n",
      "batch_normalization_491 (BatchN (None, 16, 16, 64)   192         conv2d_491[0][0]                 \n",
      "__________________________________________________________________________________________________\n",
      "batch_normalization_494 (BatchN (None, 16, 16, 96)   288         conv2d_494[0][0]                 \n",
      "__________________________________________________________________________________________________\n",
      "batch_normalization_495 (BatchN (None, 16, 16, 64)   192         conv2d_495[0][0]                 \n",
      "__________________________________________________________________________________________________\n",
      "activation_489 (Activation)     (None, 16, 16, 64)   0           batch_normalization_489[0][0]    \n",
      "__________________________________________________________________________________________________\n",
      "activation_491 (Activation)     (None, 16, 16, 64)   0           batch_normalization_491[0][0]    \n",
      "__________________________________________________________________________________________________\n",
      "activation_494 (Activation)     (None, 16, 16, 96)   0           batch_normalization_494[0][0]    \n",
      "__________________________________________________________________________________________________\n",
      "activation_495 (Activation)     (None, 16, 16, 64)   0           batch_normalization_495[0][0]    \n",
      "__________________________________________________________________________________________________\n",
      "mixed2 (Concatenate)            (None, 16, 16, 288)  0           activation_489[0][0]             \n",
      "                                                                 activation_491[0][0]             \n",
      "                                                                 activation_494[0][0]             \n",
      "                                                                 activation_495[0][0]             \n",
      "__________________________________________________________________________________________________\n",
      "conv2d_497 (Conv2D)             (None, 16, 16, 64)   18432       mixed2[0][0]                     \n",
      "__________________________________________________________________________________________________\n",
      "batch_normalization_497 (BatchN (None, 16, 16, 64)   192         conv2d_497[0][0]                 \n",
      "__________________________________________________________________________________________________\n",
      "activation_497 (Activation)     (None, 16, 16, 64)   0           batch_normalization_497[0][0]    \n",
      "__________________________________________________________________________________________________\n",
      "conv2d_498 (Conv2D)             (None, 16, 16, 96)   55296       activation_497[0][0]             \n",
      "__________________________________________________________________________________________________\n",
      "batch_normalization_498 (BatchN (None, 16, 16, 96)   288         conv2d_498[0][0]                 \n",
      "__________________________________________________________________________________________________\n",
      "activation_498 (Activation)     (None, 16, 16, 96)   0           batch_normalization_498[0][0]    \n",
      "__________________________________________________________________________________________________\n",
      "conv2d_496 (Conv2D)             (None, 7, 7, 384)    995328      mixed2[0][0]                     \n",
      "__________________________________________________________________________________________________\n",
      "conv2d_499 (Conv2D)             (None, 7, 7, 96)     82944       activation_498[0][0]             \n",
      "__________________________________________________________________________________________________\n",
      "batch_normalization_496 (BatchN (None, 7, 7, 384)    1152        conv2d_496[0][0]                 \n",
      "__________________________________________________________________________________________________\n",
      "batch_normalization_499 (BatchN (None, 7, 7, 96)     288         conv2d_499[0][0]                 \n",
      "__________________________________________________________________________________________________\n",
      "activation_496 (Activation)     (None, 7, 7, 384)    0           batch_normalization_496[0][0]    \n",
      "__________________________________________________________________________________________________\n",
      "activation_499 (Activation)     (None, 7, 7, 96)     0           batch_normalization_499[0][0]    \n",
      "__________________________________________________________________________________________________\n",
      "max_pooling2d_22 (MaxPooling2D) (None, 7, 7, 288)    0           mixed2[0][0]                     \n",
      "__________________________________________________________________________________________________\n",
      "mixed3 (Concatenate)            (None, 7, 7, 768)    0           activation_496[0][0]             \n",
      "                                                                 activation_499[0][0]             \n",
      "                                                                 max_pooling2d_22[0][0]           \n",
      "__________________________________________________________________________________________________\n",
      "conv2d_504 (Conv2D)             (None, 7, 7, 128)    98304       mixed3[0][0]                     \n",
      "__________________________________________________________________________________________________\n",
      "batch_normalization_504 (BatchN (None, 7, 7, 128)    384         conv2d_504[0][0]                 \n",
      "__________________________________________________________________________________________________\n",
      "activation_504 (Activation)     (None, 7, 7, 128)    0           batch_normalization_504[0][0]    \n",
      "__________________________________________________________________________________________________\n",
      "conv2d_505 (Conv2D)             (None, 7, 7, 128)    114688      activation_504[0][0]             \n",
      "__________________________________________________________________________________________________\n",
      "batch_normalization_505 (BatchN (None, 7, 7, 128)    384         conv2d_505[0][0]                 \n",
      "__________________________________________________________________________________________________\n",
      "activation_505 (Activation)     (None, 7, 7, 128)    0           batch_normalization_505[0][0]    \n",
      "__________________________________________________________________________________________________\n",
      "conv2d_501 (Conv2D)             (None, 7, 7, 128)    98304       mixed3[0][0]                     \n",
      "__________________________________________________________________________________________________\n",
      "conv2d_506 (Conv2D)             (None, 7, 7, 128)    114688      activation_505[0][0]             \n",
      "__________________________________________________________________________________________________\n",
      "batch_normalization_501 (BatchN (None, 7, 7, 128)    384         conv2d_501[0][0]                 \n",
      "__________________________________________________________________________________________________\n",
      "batch_normalization_506 (BatchN (None, 7, 7, 128)    384         conv2d_506[0][0]                 \n",
      "__________________________________________________________________________________________________\n",
      "activation_501 (Activation)     (None, 7, 7, 128)    0           batch_normalization_501[0][0]    \n",
      "__________________________________________________________________________________________________\n",
      "activation_506 (Activation)     (None, 7, 7, 128)    0           batch_normalization_506[0][0]    \n",
      "__________________________________________________________________________________________________\n",
      "conv2d_502 (Conv2D)             (None, 7, 7, 128)    114688      activation_501[0][0]             \n",
      "__________________________________________________________________________________________________\n",
      "conv2d_507 (Conv2D)             (None, 7, 7, 128)    114688      activation_506[0][0]             \n",
      "__________________________________________________________________________________________________\n",
      "batch_normalization_502 (BatchN (None, 7, 7, 128)    384         conv2d_502[0][0]                 \n",
      "__________________________________________________________________________________________________\n",
      "batch_normalization_507 (BatchN (None, 7, 7, 128)    384         conv2d_507[0][0]                 \n",
      "__________________________________________________________________________________________________\n",
      "activation_502 (Activation)     (None, 7, 7, 128)    0           batch_normalization_502[0][0]    \n",
      "__________________________________________________________________________________________________\n",
      "activation_507 (Activation)     (None, 7, 7, 128)    0           batch_normalization_507[0][0]    \n",
      "__________________________________________________________________________________________________\n",
      "average_pooling2d_48 (AveragePo (None, 7, 7, 768)    0           mixed3[0][0]                     \n",
      "__________________________________________________________________________________________________\n",
      "conv2d_500 (Conv2D)             (None, 7, 7, 192)    147456      mixed3[0][0]                     \n",
      "__________________________________________________________________________________________________\n",
      "conv2d_503 (Conv2D)             (None, 7, 7, 192)    172032      activation_502[0][0]             \n",
      "__________________________________________________________________________________________________\n",
      "conv2d_508 (Conv2D)             (None, 7, 7, 192)    172032      activation_507[0][0]             \n",
      "__________________________________________________________________________________________________\n",
      "conv2d_509 (Conv2D)             (None, 7, 7, 192)    147456      average_pooling2d_48[0][0]       \n",
      "__________________________________________________________________________________________________\n",
      "batch_normalization_500 (BatchN (None, 7, 7, 192)    576         conv2d_500[0][0]                 \n",
      "__________________________________________________________________________________________________\n",
      "batch_normalization_503 (BatchN (None, 7, 7, 192)    576         conv2d_503[0][0]                 \n",
      "__________________________________________________________________________________________________\n",
      "batch_normalization_508 (BatchN (None, 7, 7, 192)    576         conv2d_508[0][0]                 \n",
      "__________________________________________________________________________________________________\n",
      "batch_normalization_509 (BatchN (None, 7, 7, 192)    576         conv2d_509[0][0]                 \n",
      "__________________________________________________________________________________________________\n",
      "activation_500 (Activation)     (None, 7, 7, 192)    0           batch_normalization_500[0][0]    \n",
      "__________________________________________________________________________________________________\n",
      "activation_503 (Activation)     (None, 7, 7, 192)    0           batch_normalization_503[0][0]    \n",
      "__________________________________________________________________________________________________\n",
      "activation_508 (Activation)     (None, 7, 7, 192)    0           batch_normalization_508[0][0]    \n",
      "__________________________________________________________________________________________________\n",
      "activation_509 (Activation)     (None, 7, 7, 192)    0           batch_normalization_509[0][0]    \n",
      "__________________________________________________________________________________________________\n",
      "mixed4 (Concatenate)            (None, 7, 7, 768)    0           activation_500[0][0]             \n",
      "                                                                 activation_503[0][0]             \n",
      "                                                                 activation_508[0][0]             \n",
      "                                                                 activation_509[0][0]             \n",
      "__________________________________________________________________________________________________\n",
      "conv2d_514 (Conv2D)             (None, 7, 7, 160)    122880      mixed4[0][0]                     \n",
      "__________________________________________________________________________________________________\n",
      "batch_normalization_514 (BatchN (None, 7, 7, 160)    480         conv2d_514[0][0]                 \n",
      "__________________________________________________________________________________________________\n",
      "activation_514 (Activation)     (None, 7, 7, 160)    0           batch_normalization_514[0][0]    \n",
      "__________________________________________________________________________________________________\n",
      "conv2d_515 (Conv2D)             (None, 7, 7, 160)    179200      activation_514[0][0]             \n",
      "__________________________________________________________________________________________________\n",
      "batch_normalization_515 (BatchN (None, 7, 7, 160)    480         conv2d_515[0][0]                 \n",
      "__________________________________________________________________________________________________\n",
      "activation_515 (Activation)     (None, 7, 7, 160)    0           batch_normalization_515[0][0]    \n",
      "__________________________________________________________________________________________________\n",
      "conv2d_511 (Conv2D)             (None, 7, 7, 160)    122880      mixed4[0][0]                     \n",
      "__________________________________________________________________________________________________\n",
      "conv2d_516 (Conv2D)             (None, 7, 7, 160)    179200      activation_515[0][0]             \n",
      "__________________________________________________________________________________________________\n",
      "batch_normalization_511 (BatchN (None, 7, 7, 160)    480         conv2d_511[0][0]                 \n",
      "__________________________________________________________________________________________________\n",
      "batch_normalization_516 (BatchN (None, 7, 7, 160)    480         conv2d_516[0][0]                 \n",
      "__________________________________________________________________________________________________\n",
      "activation_511 (Activation)     (None, 7, 7, 160)    0           batch_normalization_511[0][0]    \n",
      "__________________________________________________________________________________________________\n",
      "activation_516 (Activation)     (None, 7, 7, 160)    0           batch_normalization_516[0][0]    \n",
      "__________________________________________________________________________________________________\n",
      "conv2d_512 (Conv2D)             (None, 7, 7, 160)    179200      activation_511[0][0]             \n",
      "__________________________________________________________________________________________________\n",
      "conv2d_517 (Conv2D)             (None, 7, 7, 160)    179200      activation_516[0][0]             \n",
      "__________________________________________________________________________________________________\n",
      "batch_normalization_512 (BatchN (None, 7, 7, 160)    480         conv2d_512[0][0]                 \n",
      "__________________________________________________________________________________________________\n",
      "batch_normalization_517 (BatchN (None, 7, 7, 160)    480         conv2d_517[0][0]                 \n",
      "__________________________________________________________________________________________________\n",
      "activation_512 (Activation)     (None, 7, 7, 160)    0           batch_normalization_512[0][0]    \n",
      "__________________________________________________________________________________________________\n",
      "activation_517 (Activation)     (None, 7, 7, 160)    0           batch_normalization_517[0][0]    \n",
      "__________________________________________________________________________________________________\n",
      "average_pooling2d_49 (AveragePo (None, 7, 7, 768)    0           mixed4[0][0]                     \n",
      "__________________________________________________________________________________________________\n",
      "conv2d_510 (Conv2D)             (None, 7, 7, 192)    147456      mixed4[0][0]                     \n",
      "__________________________________________________________________________________________________\n",
      "conv2d_513 (Conv2D)             (None, 7, 7, 192)    215040      activation_512[0][0]             \n",
      "__________________________________________________________________________________________________\n",
      "conv2d_518 (Conv2D)             (None, 7, 7, 192)    215040      activation_517[0][0]             \n",
      "__________________________________________________________________________________________________\n",
      "conv2d_519 (Conv2D)             (None, 7, 7, 192)    147456      average_pooling2d_49[0][0]       \n",
      "__________________________________________________________________________________________________\n",
      "batch_normalization_510 (BatchN (None, 7, 7, 192)    576         conv2d_510[0][0]                 \n",
      "__________________________________________________________________________________________________\n",
      "batch_normalization_513 (BatchN (None, 7, 7, 192)    576         conv2d_513[0][0]                 \n",
      "__________________________________________________________________________________________________\n",
      "batch_normalization_518 (BatchN (None, 7, 7, 192)    576         conv2d_518[0][0]                 \n",
      "__________________________________________________________________________________________________\n",
      "batch_normalization_519 (BatchN (None, 7, 7, 192)    576         conv2d_519[0][0]                 \n",
      "__________________________________________________________________________________________________\n",
      "activation_510 (Activation)     (None, 7, 7, 192)    0           batch_normalization_510[0][0]    \n",
      "__________________________________________________________________________________________________\n",
      "activation_513 (Activation)     (None, 7, 7, 192)    0           batch_normalization_513[0][0]    \n",
      "__________________________________________________________________________________________________\n",
      "activation_518 (Activation)     (None, 7, 7, 192)    0           batch_normalization_518[0][0]    \n",
      "__________________________________________________________________________________________________\n",
      "activation_519 (Activation)     (None, 7, 7, 192)    0           batch_normalization_519[0][0]    \n",
      "__________________________________________________________________________________________________\n",
      "mixed5 (Concatenate)            (None, 7, 7, 768)    0           activation_510[0][0]             \n",
      "                                                                 activation_513[0][0]             \n",
      "                                                                 activation_518[0][0]             \n",
      "                                                                 activation_519[0][0]             \n",
      "__________________________________________________________________________________________________\n",
      "conv2d_524 (Conv2D)             (None, 7, 7, 160)    122880      mixed5[0][0]                     \n",
      "__________________________________________________________________________________________________\n",
      "batch_normalization_524 (BatchN (None, 7, 7, 160)    480         conv2d_524[0][0]                 \n",
      "__________________________________________________________________________________________________\n",
      "activation_524 (Activation)     (None, 7, 7, 160)    0           batch_normalization_524[0][0]    \n",
      "__________________________________________________________________________________________________\n",
      "conv2d_525 (Conv2D)             (None, 7, 7, 160)    179200      activation_524[0][0]             \n",
      "__________________________________________________________________________________________________\n",
      "batch_normalization_525 (BatchN (None, 7, 7, 160)    480         conv2d_525[0][0]                 \n",
      "__________________________________________________________________________________________________\n",
      "activation_525 (Activation)     (None, 7, 7, 160)    0           batch_normalization_525[0][0]    \n",
      "__________________________________________________________________________________________________\n",
      "conv2d_521 (Conv2D)             (None, 7, 7, 160)    122880      mixed5[0][0]                     \n",
      "__________________________________________________________________________________________________\n",
      "conv2d_526 (Conv2D)             (None, 7, 7, 160)    179200      activation_525[0][0]             \n",
      "__________________________________________________________________________________________________\n",
      "batch_normalization_521 (BatchN (None, 7, 7, 160)    480         conv2d_521[0][0]                 \n",
      "__________________________________________________________________________________________________\n",
      "batch_normalization_526 (BatchN (None, 7, 7, 160)    480         conv2d_526[0][0]                 \n",
      "__________________________________________________________________________________________________\n",
      "activation_521 (Activation)     (None, 7, 7, 160)    0           batch_normalization_521[0][0]    \n",
      "__________________________________________________________________________________________________\n",
      "activation_526 (Activation)     (None, 7, 7, 160)    0           batch_normalization_526[0][0]    \n",
      "__________________________________________________________________________________________________\n",
      "conv2d_522 (Conv2D)             (None, 7, 7, 160)    179200      activation_521[0][0]             \n",
      "__________________________________________________________________________________________________\n",
      "conv2d_527 (Conv2D)             (None, 7, 7, 160)    179200      activation_526[0][0]             \n",
      "__________________________________________________________________________________________________\n",
      "batch_normalization_522 (BatchN (None, 7, 7, 160)    480         conv2d_522[0][0]                 \n",
      "__________________________________________________________________________________________________\n",
      "batch_normalization_527 (BatchN (None, 7, 7, 160)    480         conv2d_527[0][0]                 \n",
      "__________________________________________________________________________________________________\n",
      "activation_522 (Activation)     (None, 7, 7, 160)    0           batch_normalization_522[0][0]    \n",
      "__________________________________________________________________________________________________\n",
      "activation_527 (Activation)     (None, 7, 7, 160)    0           batch_normalization_527[0][0]    \n",
      "__________________________________________________________________________________________________\n",
      "average_pooling2d_50 (AveragePo (None, 7, 7, 768)    0           mixed5[0][0]                     \n",
      "__________________________________________________________________________________________________\n",
      "conv2d_520 (Conv2D)             (None, 7, 7, 192)    147456      mixed5[0][0]                     \n",
      "__________________________________________________________________________________________________\n",
      "conv2d_523 (Conv2D)             (None, 7, 7, 192)    215040      activation_522[0][0]             \n",
      "__________________________________________________________________________________________________\n",
      "conv2d_528 (Conv2D)             (None, 7, 7, 192)    215040      activation_527[0][0]             \n",
      "__________________________________________________________________________________________________\n",
      "conv2d_529 (Conv2D)             (None, 7, 7, 192)    147456      average_pooling2d_50[0][0]       \n",
      "__________________________________________________________________________________________________\n",
      "batch_normalization_520 (BatchN (None, 7, 7, 192)    576         conv2d_520[0][0]                 \n",
      "__________________________________________________________________________________________________\n",
      "batch_normalization_523 (BatchN (None, 7, 7, 192)    576         conv2d_523[0][0]                 \n",
      "__________________________________________________________________________________________________\n",
      "batch_normalization_528 (BatchN (None, 7, 7, 192)    576         conv2d_528[0][0]                 \n",
      "__________________________________________________________________________________________________\n",
      "batch_normalization_529 (BatchN (None, 7, 7, 192)    576         conv2d_529[0][0]                 \n",
      "__________________________________________________________________________________________________\n",
      "activation_520 (Activation)     (None, 7, 7, 192)    0           batch_normalization_520[0][0]    \n",
      "__________________________________________________________________________________________________\n",
      "activation_523 (Activation)     (None, 7, 7, 192)    0           batch_normalization_523[0][0]    \n",
      "__________________________________________________________________________________________________\n",
      "activation_528 (Activation)     (None, 7, 7, 192)    0           batch_normalization_528[0][0]    \n",
      "__________________________________________________________________________________________________\n",
      "activation_529 (Activation)     (None, 7, 7, 192)    0           batch_normalization_529[0][0]    \n",
      "__________________________________________________________________________________________________\n",
      "mixed6 (Concatenate)            (None, 7, 7, 768)    0           activation_520[0][0]             \n",
      "                                                                 activation_523[0][0]             \n",
      "                                                                 activation_528[0][0]             \n",
      "                                                                 activation_529[0][0]             \n",
      "__________________________________________________________________________________________________\n",
      "conv2d_534 (Conv2D)             (None, 7, 7, 192)    147456      mixed6[0][0]                     \n",
      "__________________________________________________________________________________________________\n",
      "batch_normalization_534 (BatchN (None, 7, 7, 192)    576         conv2d_534[0][0]                 \n",
      "__________________________________________________________________________________________________\n",
      "activation_534 (Activation)     (None, 7, 7, 192)    0           batch_normalization_534[0][0]    \n",
      "__________________________________________________________________________________________________\n",
      "conv2d_535 (Conv2D)             (None, 7, 7, 192)    258048      activation_534[0][0]             \n",
      "__________________________________________________________________________________________________\n",
      "batch_normalization_535 (BatchN (None, 7, 7, 192)    576         conv2d_535[0][0]                 \n",
      "__________________________________________________________________________________________________\n",
      "activation_535 (Activation)     (None, 7, 7, 192)    0           batch_normalization_535[0][0]    \n",
      "__________________________________________________________________________________________________\n",
      "conv2d_531 (Conv2D)             (None, 7, 7, 192)    147456      mixed6[0][0]                     \n",
      "__________________________________________________________________________________________________\n",
      "conv2d_536 (Conv2D)             (None, 7, 7, 192)    258048      activation_535[0][0]             \n",
      "__________________________________________________________________________________________________\n",
      "batch_normalization_531 (BatchN (None, 7, 7, 192)    576         conv2d_531[0][0]                 \n",
      "__________________________________________________________________________________________________\n",
      "batch_normalization_536 (BatchN (None, 7, 7, 192)    576         conv2d_536[0][0]                 \n",
      "__________________________________________________________________________________________________\n",
      "activation_531 (Activation)     (None, 7, 7, 192)    0           batch_normalization_531[0][0]    \n",
      "__________________________________________________________________________________________________\n",
      "activation_536 (Activation)     (None, 7, 7, 192)    0           batch_normalization_536[0][0]    \n",
      "__________________________________________________________________________________________________\n",
      "conv2d_532 (Conv2D)             (None, 7, 7, 192)    258048      activation_531[0][0]             \n",
      "__________________________________________________________________________________________________\n",
      "conv2d_537 (Conv2D)             (None, 7, 7, 192)    258048      activation_536[0][0]             \n",
      "__________________________________________________________________________________________________\n",
      "batch_normalization_532 (BatchN (None, 7, 7, 192)    576         conv2d_532[0][0]                 \n",
      "__________________________________________________________________________________________________\n",
      "batch_normalization_537 (BatchN (None, 7, 7, 192)    576         conv2d_537[0][0]                 \n",
      "__________________________________________________________________________________________________\n",
      "activation_532 (Activation)     (None, 7, 7, 192)    0           batch_normalization_532[0][0]    \n",
      "__________________________________________________________________________________________________\n",
      "activation_537 (Activation)     (None, 7, 7, 192)    0           batch_normalization_537[0][0]    \n",
      "__________________________________________________________________________________________________\n",
      "average_pooling2d_51 (AveragePo (None, 7, 7, 768)    0           mixed6[0][0]                     \n",
      "__________________________________________________________________________________________________\n",
      "conv2d_530 (Conv2D)             (None, 7, 7, 192)    147456      mixed6[0][0]                     \n",
      "__________________________________________________________________________________________________\n",
      "conv2d_533 (Conv2D)             (None, 7, 7, 192)    258048      activation_532[0][0]             \n",
      "__________________________________________________________________________________________________\n",
      "conv2d_538 (Conv2D)             (None, 7, 7, 192)    258048      activation_537[0][0]             \n",
      "__________________________________________________________________________________________________\n",
      "conv2d_539 (Conv2D)             (None, 7, 7, 192)    147456      average_pooling2d_51[0][0]       \n",
      "__________________________________________________________________________________________________\n",
      "batch_normalization_530 (BatchN (None, 7, 7, 192)    576         conv2d_530[0][0]                 \n",
      "__________________________________________________________________________________________________\n",
      "batch_normalization_533 (BatchN (None, 7, 7, 192)    576         conv2d_533[0][0]                 \n",
      "__________________________________________________________________________________________________\n",
      "batch_normalization_538 (BatchN (None, 7, 7, 192)    576         conv2d_538[0][0]                 \n",
      "__________________________________________________________________________________________________\n",
      "batch_normalization_539 (BatchN (None, 7, 7, 192)    576         conv2d_539[0][0]                 \n",
      "__________________________________________________________________________________________________\n",
      "activation_530 (Activation)     (None, 7, 7, 192)    0           batch_normalization_530[0][0]    \n",
      "__________________________________________________________________________________________________\n",
      "activation_533 (Activation)     (None, 7, 7, 192)    0           batch_normalization_533[0][0]    \n",
      "__________________________________________________________________________________________________\n",
      "activation_538 (Activation)     (None, 7, 7, 192)    0           batch_normalization_538[0][0]    \n",
      "__________________________________________________________________________________________________\n",
      "activation_539 (Activation)     (None, 7, 7, 192)    0           batch_normalization_539[0][0]    \n",
      "__________________________________________________________________________________________________\n",
      "mixed7 (Concatenate)            (None, 7, 7, 768)    0           activation_530[0][0]             \n",
      "                                                                 activation_533[0][0]             \n",
      "                                                                 activation_538[0][0]             \n",
      "                                                                 activation_539[0][0]             \n",
      "__________________________________________________________________________________________________\n",
      "flatten_7 (Flatten)             (None, 37632)        0           mixed7[0][0]                     \n",
      "__________________________________________________________________________________________________\n",
      "dense_10 (Dense)                (None, 1024)         38536192    flatten_7[0][0]                  \n",
      "__________________________________________________________________________________________________\n",
      "dropout_4 (Dropout)             (None, 1024)         0           dense_10[0][0]                   \n",
      "__________________________________________________________________________________________________\n",
      "dense_11 (Dense)                (None, 1)            1025        dropout_4[0][0]                  \n",
      "==================================================================================================\n",
      "Total params: 47,512,481\n",
      "Trainable params: 38,537,217\n",
      "Non-trainable params: 8,975,264\n",
      "__________________________________________________________________________________________________\n"
     ]
    }
   ],
…
    "x = layers.Dense(1024, activation='relu')(x)\n",
    "# Add a dropout rate of 0.2\n",
    "x = layers.Dropout(0.2)(x)                  \n",
    "# Add a final sigmoid layer for classification\n",
    "x = layers.Dense(1, activation='sigmoid')(x)           \n",
    "\n",
    "model = Model(pre_trained_model.input, x) \n",
    "\n",
    "model.compile(optimizer = RMSprop(lr=0.0001), \n",
    "              loss = 'binary_crossentropy', \n",
    "              metrics = ['acc'])\n",
    "\n",
    "model.summary()\n",
    "\n",
    "# Expected output will be large. Last few lines should be:\n",
    "\n",
    "# mixed7 (Concatenate)            (None, 7, 7, 768)    0           activation_248[0][0]             \n",
    "#                                                                  activation_251[0][0]             \n",
    "#                                                                  activation_256[0][0]             \n",
    "#                                                                  activation_257[0][0]             \n",
    "# __________________________________________________________________________________________________\n",
    "# flatten_4 (Flatten)             (None, 37632)        0           mixed7[0][0]                     \n",
    "# __________________________________________________________________________________________________\n",
    "# dense_8 (Dense)                 (None, 1024)         38536192    flatten_4[0][0]                  \n",
    "# __________________________________________________________________________________________________\n",
    "# dropout_4 (Dropout)             (None, 1024)         0           dense_8[0][0]                    \n",
    "# __________________________________________________________________________________________________\n",
    "# dense_9 (Dense)                 (None, 1)            1025        dropout_4[0][0]                  \n",
    "# ==================================================================================================\n",
    "# Total params: 47,512,481\n",
    "# Trainable params: 38,537,217\n",
    "# Non-trainable params: 8,975,264\n"
   ]
  },
  {
   "cell_type": "code",
   "execution_count": 43,
   "metadata": {
    "colab": {},
    "colab_type": "code",
    "id": "HrnL_IQ8knWA"
…
